privacy_preserving_model.pth (torch, 13234 bytes, 5 tensors)

_module.0.weight f4 [64, 6]
000000 f4 14 b0 3e ab b7 9a 3e 0a 0f 93 be 85 e5 ba be
       0.34390986 0.30218253 -0.2872241 -0.36503235
000010 59 f6 92 be 4f 55 a2 be 36 34 c1 3e a9 90 0f be
       -0.28703573 -0.3170571 0.37735146 -0.14020027
000020 d5 cb 97 bd a8 3e 5b bd 60 3a 6a be f1 7e a3 3e
       -0.07411925 -0.05352655 -0.22873831 0.31932786
000030 af e8 a9 be 6b fa 94 3e d0 90 24 be d6 a1 b7 be
       -0.33185336 0.29097304 -0.16070867 -0.3586566
000040 fd 3f 8f bd 23 62 98 3e 74 8d c0 3d 91 65 ad 3e
       -0.06994627 0.29762372 0.0940198 0.33866552
000050 df 75 99 be b4 10 cb 3d 08 1c 84 be c8 96 1d 3e
       -0.2997274 0.09915295 -0.25802636 0.1538955
000060 09 77 76 3e 25 e9 a3 3e d3 ba c5 3e a9 c6 a8 3e
       0.24068846 0.32013813 0.38619098 0.32964066
000070 3a a8 97 3e c0 94 35 3e 44 8d 90 bd 80 79 24 be
       0.29620534 0.17732525 -0.07058194 -0.16061974
000080 4a 97 a7 3e 07 62 3e be 4c 56 85 3e 60 46 8a bd
       0.32732612 -0.18592082 0.26042402 -0.06751704
000090 01 74 a7 3e 46 f6 57 3e 51 17 17 be 44 42 3f bd
       0.3270569 0.2109004 -0.14754988 -0.046694055
0000a0 22 5b d3 3d 0f 82 83 be fb 2a ee 3d c9 76 40 3e
       0.103201166 -0.25685164 0.116292916 0.18795313
0000b0 ed 48 81 3c 1b 87 83 3b 4d 2c f5 bc 1e ad 82 3e
       0.015781844 0.0040139086 -0.02992835 0.25522703
0000c0 e6 bb 86 3e d8 a6 2b 3e 1a 9f c0 be b6 aa 78 be
       0.2631523 0.16762865 -0.37621385 -0.24283871
0000d0 d3 40 e0 bd f3 4a 61 bc fd 50 bc 3e eb b6 a9 be
       -0.10949864 -0.013750779 0.3678054 -0.33147368
0000e0 e4 73 2a 3d b9 68 b3 bd b5 b7 97 be 63 32 aa be
       0.04161443 -0.08760209 -0.29632345 -0.33241567
0000f0 1f 8d bd 3e e5 b2 c8 be 22 e9 90 be cf f1 c3 be
       0.3702173 -0.39198986 -0.28302866 -0.38270423
000100 c8 58 ca bd 17 c3 a5 be 25 5d 98 be 38 0f 92 be
       -0.09880215 -0.32375404 -0.29758564 -0.28527236
000110 5d 44 25 be fa a3 75 bd 43 bf cd be 93 5d aa be
       -0.1613936 -0.059970833 -0.40184984 -0.33274516
000120 05 d9 aa 3e 8f 6a fa 3d 04 69 7d be eb ee 65 be
       0.33368698 0.12227356 -0.24747092 -0.22454421
000130 ba 96 58 3d a6 26 a9 3d f7 08 ae be 47 c5 cc be
       0.05287812 0.08259325 -0.33991215 -0.3999426
000140 1c cd 6c 3e 6e c5 e5 bd 81 44 a9 3e e0 58 0d 3e
       0.23125118 -0.11219297 0.33060077 0.13803434
000150 e9 15 97 3e 6e 0e 68 be cd c8 0f be 8b 93 a3 3e
       0.29508904 -0.22661754 -0.14041443 0.31948504
000160 5e 43 3a bc c5 61 95 be 26 34 8e be 20 7c bd 3e
       -0.011368601 -0.29176155 -0.2777416 0.37008762
000170 7b 28 33 3e 4f 3b 46 3e 98 78 d2 3e 0f 92 27 be
       0.17495911 0.19358562 0.4110763 -0.1636431
000180 e8 32 b6 be f1 0d 33 be d1 fa 94 3d 67 e5 49 bd
       -0.35585713 -0.17485787 0.07274402 -0.04929104
000190 dc d2 a6 3e 34 a9 3e be f1 98 16 be 53 ba 52 3e
       0.32582748 -0.18619233 -0.1470678 0.2057889
0001a0 97 d7 b3 be a2 58 0a bd ec a2 7c 3e f2 ba 9f be
       -0.3512542 -0.033775933 0.24671525 -0.31197315
0001b0 88 72 eb bd fe 56 58 be 71 10 4d 3e e4 a7 b7 be
       -0.114964545 -0.21126935 0.20025803 -0.35870278
0001c0 c6 b3 51 3e 6f 31 9a be 47 08 c6 3d 04 e9 f9 3d
       0.20478734 -0.3011584 0.096695475 0.12202647
0001d0 c6 32 b2 be 7e 21 2d be 82 e9 83 3e 0f 0b 95 be
       -0.34804362 -0.16907308 0.2576409 -0.2911
0001e0 5b b5 c0 3e c0 7c 09 3e 73 79 83 be 1f cf 87 be
       0.37638363 0.13426495 -0.25678596 -0.26525208
0001f0 fc 31 db be ac 3b 92 be 6e 7a 70 be dc 76 32 3e
       -0.42811573 -0.2856115 -0.23484203 0.17428154
000200 ff a6 aa 3d c4 25 8b be 0f 27 41 bd 4b ce c9 be
       0.08332633 -0.2717725 -0.04715639 -0.39415202
000210 90 87 26 be c0 6b d2 3e bc d2 8b be 14 03 11 be
       -0.1626265 0.41097832 -0.27309215 -0.1416133
000220 bd ad 9c be 82 6b 72 be bd c1 29 be d9 41 82 3e
       -0.30601302 -0.23673823 -0.16577812 0.25440863
000230 57 5c b9 bc 33 bc a5 bd 3a 1c 04 3d 0c b7 5f 3d
       -0.022627039 -0.08092537 0.03225348 0.054617926
000240 16 61 c6 3e 8c f2 b2 3d 64 82 df bd 33 5b 8b be
       0.38745946 0.087376684 -0.10913542 -0.27218017
000250 9d 33 aa 3e a9 cd 66 be b8 1d 80 3e 5c 7f 94 be
       0.33242503 -0.2253939 0.25022674 -0.29003417
000260 44 3f c9 3e 3e 50 af be 9c 60 a6 3e d7 fd 1d be
       0.3930608 -0.34240907 0.32495582 -0.15428863
000270 d7 e0 5d bd 8d 07 60 bd e9 e1 17 bc 08 f0 59 3e
       -0.054169502 -0.0546947 -0.00927017 0.21282971
000280 3e 1d 8d bd bc 83 bc 3e 72 ff 67 3d 94 0f ca be
       -0.06890343 0.36819255 0.056640096 -0.3946501
000290 6b 99 c1 3e 05 3b a0 3e 92 bb b9 3e 4f 15 ba be
       0.3781236 0.31295028 0.36275917 -0.36344382
0002a0 f3 e8 ea 3c 1b ad 8b 3b 34 13 90 3e 5d 87 2a be
       0.028675532 0.004262579 0.2813965 -0.166532
0002b0 22 b7 86 be 58 cf cb be f5 86 41 be e2 60 6b 3e
       -0.26311594 -0.39806628 -0.18899138 0.22986177
0002c0 94 0e d4 bd 4d e2 2c be 89 e1 c8 be 97 07 dd 3d
       -0.10354343 -0.16883202 -0.3923457 0.10792463
0002d0 c0 6a 06 bd 0e f0 24 3e 9c 46 4f bd b1 54 dd 3b
       -0.03281665 0.16107199 -0.050604448 0.006754481
0002e0 58 5b d3 bd d3 ea 5c 3e f0 35 a6 3e 69 06 95 be
       -0.10320157 0.21573953 0.32463026 -0.29106453
0002f0 92 39 76 be 53 ff 54 3e 3e ca d9 3b da 5d 9f 3e
       -0.24045399 0.20800523 0.0066464236 0.3112629
000300 10 71 bc 3e 45 c3 c2 3e 2e 00 2c be 09 3b 40 3e
       0.3680501 0.38039604 -0.16796944 0.1877252
000310 1a e1 b1 be c3 75 c7 3e e2 e1 78 3e 52 88 bd 3e
       -0.3474205 0.38957033 0.24304917 0.37018067
000320 e8 1b 12 be 32 55 a0 3e e4 74 c9 3d 1e 8c ae 3e
       -0.14268458 0.31315 0.09836748 0.34091276
000330 14 a5 b0 3e 6e 29 a4 bd 9d 59 89 3e 3c 07 39 3e
       0.34500945 -0.080157146 0.26826182 0.18069166
000340 0b f2 cc 3e 40 28 3e be cc 50 78 be d3 6b ad 3d
       0.40028414 -0.18570042 -0.24249572 0.084678315
000350 a6 a8 56 3d 6f 99 c6 bc 97 b3 98 3e bb 97 9f 3e
       0.05240693 -0.024243085 0.29824516 0.3117045
000360 36 18 03 be 46 b1 24 3e 47 29 5b 3d 50 06 8d 3e
       -0.12802204 0.1608325 0.053506162 0.2754388
000370 a7 d7 b2 3e a1 f5 c3 3d 59 f7 62 3d 91 16 ca 3e
       0.34930155 0.09568334 0.05541167 0.39470342
000380 03 37 2a be fa 57 ce 3e b4 bc 59 3e fe a9 f8 bc
       -0.16622548 0.40301496 0.21263391 -0.030354496
000390 54 37 bc 3e 9b 66 1b 3e 1a bc a8 3e e2 9e bc be
       0.36760962 0.1517586 0.3295601 -0.36839968
0003a0 7b 43 0f bd 7f 2c 71 be 28 41 7e 3e e5 97 d4 bd
       -0.034976464 -0.2355213 0.24829543 -0.10380534
0003b0 cf b2 3f be 64 f0 a3 3d 20 0f fb 3d 0a 64 93 3e
       -0.18720554 0.08004835 0.12258744 0.2878726
0003c0 08 7a 3b 3c 77 29 ce bc 18 8b 28 3e 2c fb 2f be
       0.011442669 -0.025166256 0.1645931 -0.17185658
0003d0 a4 08 e7 bd b6 8d b2 3e 85 60 57 be a8 e8 3c be
       -0.11280945 0.34873742 -0.21032913 -0.18448126
0003e0 8b 0d 97 be f2 7b 6b 3e 20 6c 2f be 1f eb 48 3d
       -0.2950252 0.229965 -0.1713109 0.049052354
0003f0 ba 4c 83 3d 6c 23 26 3e d7 3d 8e 3e 59 51 fb 3d
       0.06411119 0.1622445 0.27781555 0.12271375

_module.0.bias f4 [64]
000000 e2 32 9f 3e bc 4f cc 3e 5d 76 cf 3e b2 50 a7 3e
       0.31093508 0.39904583 0.40519992 0.32678753
000010 bc fe 50 3e 0a a2 13 3e a2 89 32 3e 62 9b dd bb
       0.20409673 0.14417282 0.17435315 -0.006762908
000020 a3 d7 8e be 45 ce 35 3e 71 f4 0b be 49 72 5b be
       -0.27898893 0.17754467 -0.13667466 -0.21430315
000030 12 9f a0 3e 49 df a1 3e a0 b8 6c 3e 5d 1b 25 be
       0.3137136 0.31615666 0.23117304 -0.1612372
000040 5a 27 a7 bd 5a bc 48 be 63 b4 60 3e 15 d9 2e be
       -0.081618026 -0.196031 0.21943812 -0.17074998
000050 ed e9 83 3e ba ad 0c 3e e2 01 12 3e 56 e3 33 3e
       0.2576441 0.13738146 0.1425853 0.1756719
000060 36 25 55 be 94 dc 84 3d b9 84 8d be e3 53 e6 3d
       -0.20814976 0.064873844 -0.27640322 0.11246469
000070 bb f2 03 3e fd 7f 9e be 56 1b 41 3e 62 13 3e 3e
       0.12885563 -0.30957022 0.18858084 0.18562081
000080 3a 4e c9 3e 4d eb f0 3c 4c c1 5c be 0a ae ad be
       0.39317495 0.029409075 -0.21558112 -0.33921844
000090 a6 90 59 bc de 03 cb 3e 0e 44 fc 3c 50 77 07 3e
       -0.013279116 0.39651388 0.03079417 0.13229108
0000a0 6a 59 c1 3e 9a 11 ab be 9a e7 8c 3e 83 3e fc 3d
       0.3776353 -0.33411866 0.27520448 0.12316611
0000b0 fd 7b 09 be 68 9e 6b be 48 ec af be f6 b3 cb 3e
       -0.13426204 -0.23009646 -0.34359956 0.39785737
0000c0 88 7c 0b 3d a5 db a0 bd 00 2b b9 3e 7f fe cd 3d
       0.03405431 -0.07854394 0.3616562 0.10058307
0000d0 b6 85 85 3e 2c 7a 59 3e 87 55 27 3e 96 c5 80 3e
       0.26078576 0.21238011 0.1634122 0.25150746
0000e0 9c 25 ac be e9 74 37 be eb d7 a1 3c 4d 4c b2 be
       -0.33622444 -0.17915691 0.019756278 -0.34823838
0000f0 c7 e5 a2 bc 82 f6 8a be ab 5c 14 be bc 63 1d 3e
       -0.019884957 -0.27141196 -0.14488475 0.15370077

_module.2.weight f4 [32, 64]
000000 0d 64 b6 3d 78 89 47 3b 08 da e2 3d dd ee 20 3d
       0.08905802 0.0030446928 0.110767424 0.039290298
000010 c0 74 ef 3d 42 5e 90 bc 53 85 9c bd 35 95 a5 bc
       0.1169219 -0.01762307 -0.07642617 -0.020212749
000020 5c 07 37 bd 65 0d fb 3c a4 fb d0 bd 19 7c de bd
       -0.044684753 0.030646035 -0.10204247 -0.108635135
000030 6f c8 e0 bc 49 1d e1 3d 6b 88 5b bd e7 0e ce bc
       -0.027439324 0.10991914 -0.053596895 -0.02515359
000040 4c 73 59 3d ae 7f b5 3d e4 b9 ed 3d 99 e3 45 bd
       0.05308847 0.088622436 0.116077214 -0.048312757
000050 b7 7c e4 3d 40 06 cd 3c 04 47 d9 3d 3a 07 5e bc
       0.111566 0.025027394 0.10609248 -0.013551528
000060 6b 47 c7 bc 88 2a 77 bd 2f 78 bc bc b3 08 0f be
       -0.024326047 -0.060343295 -0.023006527 -0.13968162
000070 12 fa 52 3d fa fa 87 3d e0 fa 48 bd 81 da c1 3d
       0.051508017 0.06639667 -0.049067378 0.094655044
000080 a5 46 8c 3b 3e 2e 6a bd 9e e9 d1 bc 7e 10 9d 3d
       0.0042808824 -0.057173006 -0.025624093 0.07669161
000090 2e a1 a1 3d 66 3a ee 3d e6 38 5f bc ea d0 9d bd
       0.07892071 0.11632232 -0.0136244055 -0.07705863
0000a0 b1 e5 8c bd 83 0f b7 3d 26 b0 80 bd 4d 00 23 bd
       -0.06879748 0.089385055 -0.06283598 -0.03979521
0000b0 ea 20 43 bb dc 1b 53 bd b8 3b d0 3d f5 8a 1e bd
       -0.0029774257 -0.05154024 0.101676404 -0.03870674
0000c0 13 66 80 bd 8a d1 ad bc 66 5f b8 3d 36 ec 4f 3d
       -0.06269469 -0.02121808 0.09002571 0.050762378
0000d0 91 e7 f0 3d d4 7b 2a bd 60 ae 77 bc 62 a3 ca bd
       0.11762918 -0.041621998 -0.015117258 -0.09894444
0000e0 c9 5b 2a bd c8 3f 45 3d 35 ad 56 bd 61 29 ae bc
       -0.04159144 0.04815653 -0.052411277 -0.021259965
0000f0 c4 87 cc bd 73 37 ac bd 6a 67 0b 3e 32 93 9f bd
       -0.09986833 -0.084090136 0.13613668 -0.07791747
000100 60 38 88 bd 45 33 37 bd b4 f1 eb 3d 66 b7 98 bb
       -0.06651378 -0.04472663 0.115207106 -0.0046605347
000110 db 99 99 bd 09 7c c1 3d 37 ff dc bd 83 9b cb bc
       -0.07500049 0.09447486 -0.10790866 -0.024854427
000120 c6 c1 ca 3d e3 1a 34 3c 88 23 b5 bd 8e fd f4 3b
       0.099002406 0.010992738 -0.08844668 0.007476515
000130 7e 7c 15 bd 03 5f 28 3d fc 35 46 3d 83 f5 da bb
       -0.036495678 0.041106235 0.048391327 -0.0066820993
000140 9d 05 78 3b a5 2c cc 3d e4 d0 8c bd 01 c4 89 bc
       0.0037845143 0.09969453 -0.0687578 -0.016817095
000150 51 05 35 3d 89 77 c5 bb ae fc 87 3c fe dc 0b bc
       0.044194523 -0.0060262126 0.01659998 -0.008536575
000160 f6 1a 05 3e 62 8c a3 ba f1 c3 4d 3d 21 a3 0e be
       0.12998566 -0.001247775 0.050235692 -0.13929416
000170 73 65 48 3c bc fc bb 3d a1 45 01 3e b9 11 15 3d
       0.012231219 0.09179065 0.12624218 0.036393855
000180 90 82 a0 3d 11 d7 06 3e 3f 67 56 3d 01 12 70 3c
       0.07837403 0.13167979 0.052344557 0.01465273
000190 57 88 b6 3d a0 98 4f 3c c8 2d ac bc be dd ec 3c
       0.089127235 0.012670666 -0.021017924 0.028914329
0001a0 e1 91 5e bc c6 9b 4a bd 7e e2 fc bc c4 20 c6 bd
       -0.013584585 -0.049464963 -0.030869719 -0.09674218
0001b0 99 b5 5a bc 34 62 c7 bd a8 5e d0 3c b2 93 a0 3d
       -0.01334896 -0.09735528 0.02543576 0.07840671
0001c0 d2 4c 9c bd 91 b7 16 3e 9c e6 d6 3d a8 a3 04 be
       -0.0763184 0.14718463 0.10493204 -0.12953055
0001d0 d7 6e aa 3d b8 e4 44 bd 78 e4 30 3b 51 43 99 bb
       0.08321922 -0.048069686 0.0026991647 -0.004677214
0001e0 bf 62 68 bc 46 c8 93 bd 57 15 ae bd 02 e7 a1 bd
       -0.014183699 -0.072159335 -0.08500164 -0.07905389
0001f0 6c 64 52 bd 20 1b 61 bd 05 43 c1 3d bc f1 a6 3d
       -0.0513653 -0.05495751 0.09436611 0.08151576
000200 9b d0 4d 3d d3 1c 11 be 42 0e e1 3d c6 65 e2 3d
       0.05024777 -0.14171152 0.109890476 0.11054568
000210 d2 51 ea bc 67 e4 e4 3d 65 be 5d 3d 9d 3c f2 bd
       -0.028603468 0.11176377 0.054136652 -0.11827967
000220 79 bb b3 3d a3 9d 75 3d f6 49 cc 3d 4b 91 66 bd
       0.08775992 0.059964787 0.099750444 -0.056290906
000230 65 ef 29 bc 74 d2 8b 3d 8d 3e 3d bd 84 10 ef 3c
       -0.0103720175 0.0682725 -0.04620223 0.02918268
000240 2b b3 a8 bd 79 dc 7a bc e0 00 0b 3e 72 45 c0 3d
       -0.082372986 -0.015311354 0.13574553 0.09388246
000250 e9 73 53 3d c8 d9 de bc 52 5f ba bd 1a c0 07 be
       0.051624212 -0.027203456 -0.09100212 -0.13256875
000260 ee be fa bd f9 7f 00 bd 98 32 80 bc 4a 3d b7 bd
       -0.12243448 -0.031372044 -0.015649125 -0.08947237
000270 1f f6 92 3d a9 c0 26 3d e1 c9 8e 3c f0 57 0e 3d
       0.0717585 0.04071108 0.017430248 0.034751832
000280 d0 fc 8b bc c4 ca cc 3d 2d bf e3 bd 46 e5 11 bd
       -0.017088324 0.09999612 -0.11120448 -0.035619043
000290 ff 2f ac 3d 4d a8 26 bd 2e 3e 0e be d6 9e 83 3d
       0.08407592 -0.040687848 -0.13890907 0.0642678
0002a0 24 19 e1 bd b7 a8 e7 bb 38 ff 72 3c 2f a4 a1 bd
       -0.10991123 -0.007069673 0.014831357 -0.07892644
0002b0 75 42 0d 3e 5a b6 92 3d d5 cb 6f bd 2f 5d 14 bd
       0.13794883 0.07163687 -0.058544 -0.03622168
0002c0 36 37 8b 3a 71 77 92 3d 81 ed 16 bd a2 3d a1 3d
       0.0010621313 0.07151688 -0.036847595 0.07873084
0002d0 d4 d9 b4 bd a6 1d df 3d e9 41 32 bb 0b 64 06 3e
       -0.0883061 0.10894327 -0.002719993 0.13124101
0002e0 4b 31 57 3c 00 ae e9 bd 5f 5c f3 3d 3c 61 0a bd
       0.013134311 -0.11410141 0.11882853 -0.033784136
0002f0 b8 5a 83 bd 9a e4 fa bd f4 c1 ac bd af db 96 ba
       -0.064137876 -0.122506335 -0.08435431 -0.0011509563
000300 45 81 21 3d e8 41 a0 bd 84 63 06 3b 63 ee 35 3d
       0.03942992 -0.078250706 0.0020506093 0.044416796
000310 fe ad 6a bd 2d 40 0f be 09 55 77 3d 9a ed 3f 3d
       -0.057294838 -0.13989325 0.06038383 0.046857454
000320 e6 8d f0 bd 78 b1 0b bc 6e 9c 9c 3c a0 b8 d9 bd
       -0.11745815 -0.008526199 0.01911756 -0.106309175
000330 d6 66 3b 3d 07 5e a8 3d 1f a6 c6 3d b2 9a 55 3a
       0.04575237 0.08221059 0.09699654 0.00081483566
000340 d2 4f c9 bd ac ce 4a 3d 2b 13 cb bd 63 5b 2b bc
       -0.09829678 0.049513504 -0.099157654 -0.0104588
000350 2f cc ae 3d d3 be 57 3d c5 fb 80 3d 29 fb d9 bb
       0.08535039 0.05267222 0.06298021 -0.006652255
000360 13 47 c6 bd a7 d0 c8 bd db bc a9 bc d0 4c 4c 3d
       -0.09681525 -0.09805422 -0.020719936 0.04987794
000370 32 d2 23 3d 46 b5 cf bd c3 6e 3b bd b8 da d2 3d
       0.03999538 -0.10141997 -0.045759927 0.102956235
000380 e1 31 80 3d ac a7 b8 3d db c4 83 3d 8d 2c b4 bd
       0.06259514 0.09016356 0.064340316 -0.0879756
000390 a3 82 a7 bc 68 17 8c 3d 6e f6 a7 3c 94 9b 52 bd
       -0.020448035 0.06840402 0.020503249 -0.051417902
0003a0 fa 30 64 bd 16 21 3e bd 09 a8 df 3d 90 be 07 be
       -0.05571077 -0.046418272 0.10920722 -0.13256288
0003b0 a2 e5 c8 3d 90 88 cb 3c 3b 59 a6 bc 66 fc 2a bc
       0.09809424 0.024845392 -0.02030622 -0.010436153
0003c0 a5 65 d9 bd 61 1a 5b bd 05 a6 ab bd 2c 0e c3 3d
       -0.1061509 -0.053491954 -0.08381275 0.095241874
0003d0 54 b3 06 3e 2e 45 48 bc 71 0b d7 3d b6 5d d0 bd
       0.13154346 -0.012223525 0.10500229 -0.10174124
0003e0 a7 4a 16 bd 82 be f9 bd bc f5 cc bd d1 da c8 3d
       -0.036692288 -0.121945396 -0.100078076 0.09807361
0003f0 c0 d7 d1 bd ad 2b bc bd d2 6d 70 bd 03 3b 9e bd
       -0.10246229 -0.09188018 -0.058698483 -0.07726099

_module.2.bias f4 [32]
000000 93 09 ef 3d 4d 7d c5 3d 03 cb bf 3d cb 9f 0c be
       0.11671748 0.0964304 0.09364893 -0.13732831
000010 43 7d 4f bd 58 8d a3 bd 98 e3 a7 3d 3b 79 a2 3d
       -0.05065657 -0.079859436 0.08197707 0.07933279
000020 8b c3 93 3d d6 e7 01 3e a9 c7 a9 3d 03 fe 70 bd
       0.07215031 0.12686095 0.08290035 -0.058835994
000030 05 8c 04 be 75 02 90 bd 35 06 e2 3c 60 97 aa 3c
       -0.12944038 -0.07031719 0.02759085 0.020824134
000040 c9 b6 0c 3d 5b 18 87 3c dc 60 0b 3e 01 51 f4 bd
       0.034354005 0.016491106 0.13611168 -0.11929513
000050 d7 99 e9 bd 5c 60 77 bd 02 0b e0 3d 22 5e c6 3d
       -0.11406296 -0.06039463 0.109395996 0.09685923
000060 b7 78 a4 bc 4e 3b ea bd 04 47 44 3d d8 fb b6 3d
       -0.020077093 -0.11437093 0.04791929 0.08934754
000070 54 b0 91 3d fb 5c 08 3e 71 01 e5 3b 4c 73 43 3c
       0.0711371 0.13316719 0.006988697 0.011929344

_module.4.weight f4 [1, 32]
000000 73 98 e6 bd 11 50 2f be 30 2c 13 3d a3 0a bb bc
       -0.11259546 -0.17120387 0.035930812 -0.02283222
000010 05 82 4a bd 42 43 d4 bd 89 23 4c be 89 5b b2 3d
       -0.049440403 -0.10364391 -0.1993543 0.08708865
000020 79 ff 1f 3e 76 23 48 3d 85 95 48 bd bf 33 50 3d
       0.15624799 0.048861943 -0.048970718 0.0508306
000030 2d e6 10 3e 72 c3 d9 bd c9 8b c5 3d d1 6f e8 3d
       0.14150305 -0.10632981 0.096458025 0.11349452
000040 af 54 ff 3d 96 a6 be 3d 9e df 66 bd 9f ac 19 be
       0.12467324 0.093091175 -0.0563656 -0.15007256
000050 0a 45 0d 3e 31 21 5d 3a 8a 8a 98 bd de a1 e9 3c
       0.13795868 0.0008435427 -0.07448299 0.028519567
000060 40 18 19 be 7a 07 00 bd fb bb 27 3e d7 d0 40 3e
       -0.14950657 -0.03125713 0.16380303 0.18829666
000070 67 cb 11 ba 14 bb 26 3e 21 02 ee 3d d7 42 aa bb
       -0.00055616203 0.16282302 0.116215 -0.005195956
